_________________________________________________________________
Layer (type)                 Output Shape              Param #   
=================================================================
input_3 (InputLayer)         [(None, 32, 32, 3)]       0         
_________________________________________________________________
conv2d_12 (Conv2D)           (None, 32, 32, 32)        896       
_________________________________________________________________
max_pooling2d_5 (MaxPooling2 (None, 16, 16, 32)        0         
_________________________________________________________________
conv2d_13 (Conv2D)           (None, 16, 16, 16)        4624      
_________________________________________________________________
max_pooling2d_6 (MaxPooling2 (None, 8, 8, 16)          0         
_________________________________________________________________
conv2d_14 (Conv2D)           (None, 8, 8, 16)          2320      
_________________________________________________________________
up_sampling2d_5 (UpSampling2 (None, 16, 16, 16)        0         
_________________________________________________________________
conv2d_15 (Conv2D)           (None, 16, 16, 32)        4640      
_________________________________________________________________
up_sampling2d_6 (UpSampling2 (None, 32, 32, 32)        0         
_________________________________________________________________
conv2d_16 (Conv2D)           (None, 32, 32, 3)         867       
=================================================================
Total params: 13,347
Trainable params: 13,347
Non-trainable params: 0
_________________________________________________________________



{'loss': [… 'val_loss': [… The fraction of times anomalies in mnist dataset is: 0.0
The fraction of times anomalies in fashion mnist dataset is: 0.0