_________________________________________________________________
Layer (type)                 Output Shape              Param #   
=================================================================
dense_6 (Dense)              (None, 200)               157000    
_________________________________________________________________
dense_7 (Dense)              (None, 200)               40200     
_________________________________________________________________
dense_8 (Dense)              (None, 80)                16080     
_________________________________________________________________
dense_9 (Dense)              (None, 200)               16200     
_________________________________________________________________
dense_10 (Dense)             (None, 200)               40200     
_________________________________________________________________
dense_11 (Dense)             (None, 784)               157584    
=================================================================
Total params: 427,264
Trainable params: 427,264
Non-trainable params: 0
_________________________________________________________________


{'loss': [… 'val_loss': [… The fraction of times anomalies in mnist dataset is: 0.0
The fraction of times anomalies in fashion mnist dataset is: 0.6075166666666667