_________________________________________________________________
Layer (type)                 Output Shape              Param #   
=================================================================
input_1 (InputLayer)         [(None, 28, 28, 1)]       0         
_________________________________________________________________
conv2d (Conv2D)              (None, 28, 28, 32)        320       
_________________________________________________________________
max_pooling2d (MaxPooling2D) (None, 14, 14, 32)        0         
_________________________________________________________________
conv2d_1 (Conv2D)            (None, 14, 14, 16)        4624      
_________________________________________________________________
max_pooling2d_1 (MaxPooling2 (None, 7, 7, 16)          0         
_________________________________________________________________
conv2d_2 (Conv2D)            (None, 7, 7, 8)           1160      
_________________________________________________________________
max_pooling2d_2 (MaxPooling2 (None, 4, 4, 8)           0         
_________________________________________________________________
conv2d_3 (Conv2D)            (None, 4, 4, 8)           584       
_________________________________________________________________
up_sampling2d (UpSampling2D) (None, 8, 8, 8)           0         
_________________________________________________________________
conv2d_4 (Conv2D)            (None, 8, 8, 16)          1168      
_________________________________________________________________
up_sampling2d_1 (UpSampling2 (None, 16, 16, 16)        0         
_________________________________________________________________
conv2d_5 (Conv2D)            (None, 14, 14, 32)        4640      
_________________________________________________________________
up_sampling2d_2 (UpSampling2 (None, 28, 28, 32)        0         
_________________________________________________________________
conv2d_6 (Conv2D)            (None, 28, 28, 1)         289       
=================================================================
Total params: 12,785
Trainable params: 12,785
Non-trainable params: 0
_________________________________________________________________


{'loss': [… 'val_loss': [… The fraction of times anomalies in mnist dataset is: 0.0
The fraction of times anomalies in fashion mnist dataset is: 0.0